…
Training time without block to device /epoch 1.2676115036010742
Training time without total dataloading part /epoch 1.125035047531128
load block tensor time/epoch 0.10002517700195312
block to device time/epoch 0.3626985549926758
input features size transfer per epoch 2.1457672119140625e-06
blocks size to device per epoch 1.9073486328125e-06
 Run 0| Epoch 0 |
Number of nodes for computation during this epoch:  186860
Number of first layer input nodes during this epoch:  112035
Number of first layer output nodes during this epoch:  57797
GraphSAGE(
  (layers): ModuleList(
    (0): SAGEConv(
      (fc_self): Linear(in_features=500, out_features=512, bias=False)
      (fc_neigh): Linear(in_features=500, out_features=512, bias=False)
    )
    (1): SAGEConv(
      (fc_self): Linear(in_features=512, out_features=512, bias=False)
      (fc_neigh): Linear(in_features=512, out_features=512, bias=False)
    )
    (2): SAGEConv(
      (fc_self): Linear(in_features=512, out_features=512, bias=False)
      (fc_neigh): Linear(in_features=512, out_features=512, bias=False)
    )
    (3): SAGEConv(
      (fc_self): Linear(in_features=512, out_features=512, bias=False)
      (fc_neigh): Linear(in_features=512, out_features=512, bias=False)
    )
    (4): SAGEConv(
      (fc_self): Linear(in_features=512, out_features=3, bias=False)
      (fc_neigh): Linear(in_features=512, out_features=3, bias=False)
    )
  )
  (dropout): Dropout(p=0.5, inplace=False)
)
total model parameters size  2087936
trainable parameters
layers.0.fc_self.weight, torch.Size([512, 500])
layers.0.fc_neigh.weight, torch.Size([512, 500])
layers.1.fc_self.weight, torch.Size([512, 512])
layers.1.fc_neigh.weight, torch.Size([512, 512])
layers.2.fc_self.weight, torch.Size([512, 512])
layers.2.fc_neigh.weight, torch.Size([512, 512])
…
