…
Training time without block to device /epoch 0.9618241786956787
Training time without total dataloading part /epoch 0.8824872970581055
load block tensor time/epoch 0.06429481506347656
block to device time/epoch 0.350475549697876
input features size transfer per epoch 5.364418029785156e-07
blocks size to device per epoch 4.76837158203125e-07
 Run 0| Epoch 0 |
Number of nodes for computation during this epoch:  106054
Number of first layer input nodes during this epoch:  54133
Number of first layer output nodes during this epoch:  37186
GraphSAGE(
  (layers): ModuleList(
    (0): SAGEConv(
      (fc_self): Linear(in_features=500, out_features=512, bias=False)
      (fc_neigh): Linear(in_features=500, out_features=512, bias=False)
    )
    (1): SAGEConv(
      (fc_self): Linear(in_features=512, out_features=512, bias=False)
      (fc_neigh): Linear(in_features=512, out_features=512, bias=False)
    )
    (2): SAGEConv(
      (fc_self): Linear(in_features=512, out_features=512, bias=False)
      (fc_neigh): Linear(in_features=512, out_features=512, bias=False)
    )
    (3): SAGEConv(
      (fc_self): Linear(in_features=512, out_features=512, bias=False)
      (fc_neigh): Linear(in_features=512, out_features=512, bias=False)
    )
    (4): SAGEConv(
      (fc_self): Linear(in_features=512, out_features=3, bias=False)
      (fc_neigh): Linear(in_features=512, out_features=3, bias=False)
    )
  )
  (dropout): Dropout(p=0.5, inplace=False)
)
total model parameters size  2087936
trainable parameters
layers.0.fc_self.weight, torch.Size([512, 500])
layers.0.fc_neigh.weight, torch.Size([512, 500])
layers.1.fc_self.weight, torch.Size([512, 512])
layers.1.fc_neigh.weight, torch.Size([512, 512])
layers.2.fc_self.weight, torch.Size([512, 512])
layers.2.fc_neigh.weight, torch.Size([512, 512])
…
