…
Training time without block to device /epoch 0.8262653350830078
Training time without total dataloading part /epoch 0.8069257736206055
load block tensor time/epoch 0.015382051467895508
block to device time/epoch 0.357924222946167
input features size transfer per epoch 1.341104507446289e-07
blocks size to device per epoch 1.1920928955078125e-07
 Run 0| Epoch 0 |
Number of nodes for computation during this epoch:  44359
Number of first layer input nodes during this epoch:  17848
Number of first layer output nodes during this epoch:  15732
GraphSAGE(
  (layers): ModuleList(
    (0): SAGEConv(
      (fc_self): Linear(in_features=500, out_features=512, bias=False)
      (fc_neigh): Linear(in_features=500, out_features=512, bias=False)
    )
    (1): SAGEConv(
      (fc_self): Linear(in_features=512, out_features=512, bias=False)
      (fc_neigh): Linear(in_features=512, out_features=512, bias=False)
    )
    (2): SAGEConv(
      (fc_self): Linear(in_features=512, out_features=512, bias=False)
      (fc_neigh): Linear(in_features=512, out_features=512, bias=False)
    )
    (3): SAGEConv(
      (fc_self): Linear(in_features=512, out_features=512, bias=False)
      (fc_neigh): Linear(in_features=512, out_features=512, bias=False)
    )
    (4): SAGEConv(
      (fc_self): Linear(in_features=512, out_features=3, bias=False)
      (fc_neigh): Linear(in_features=512, out_features=3, bias=False)
    )
  )
  (dropout): Dropout(p=0.5, inplace=False)
)
total model parameters size  2087936
trainable parameters
layers.0.fc_self.weight, torch.Size([512, 500])
layers.0.fc_neigh.weight, torch.Size([512, 500])
layers.1.fc_self.weight, torch.Size([512, 512])
layers.1.fc_neigh.weight, torch.Size([512, 512])
layers.2.fc_self.weight, torch.Size([512, 512])
layers.2.fc_neigh.weight, torch.Size([512, 512])
…
