…
Training time without block to device /epoch 2.6550722122192383
Training time without total dataloading part /epoch 2.2734599113464355
load block tensor time/epoch 0.19333434104919434
block to device time/epoch 0.39675426483154297
input features size transfer per epoch 8.58306884765625e-06
blocks size to device per epoch 7.62939453125e-06
 Run 0| Epoch 0 |
Number of nodes for computation during this epoch:  90094
Number of first layer input nodes during this epoch:  50278
Number of first layer output nodes during this epoch:  26249
GraphSAGE(
  (layers): ModuleList(
    (0): SAGEConv(
      (fc_self): Linear(in_features=1433, out_features=256, bias=False)
      (fc_neigh): Linear(in_features=1433, out_features=256, bias=False)
    )
    (1): SAGEConv(
      (fc_self): Linear(in_features=256, out_features=256, bias=False)
      (fc_neigh): Linear(in_features=256, out_features=256, bias=False)
    )
    (2): SAGEConv(
      (fc_self): Linear(in_features=256, out_features=256, bias=False)
      (fc_neigh): Linear(in_features=256, out_features=256, bias=False)
    )
    (3): SAGEConv(
      (fc_self): Linear(in_features=256, out_features=256, bias=False)
      (fc_neigh): Linear(in_features=256, out_features=256, bias=False)
    )
    (4): SAGEConv(
      (fc_self): Linear(in_features=256, out_features=7, bias=False)
      (fc_neigh): Linear(in_features=256, out_features=7, bias=False)
    )
  )
  (dropout): Dropout(p=0.5, inplace=False)
)
total model parameters size  1130496
trainable parameters
layers.0.fc_self.weight, torch.Size([256, 1433])
layers.0.fc_neigh.weight, torch.Size([256, 1433])
layers.1.fc_self.weight, torch.Size([256, 256])
layers.1.fc_neigh.weight, torch.Size([256, 256])
layers.2.fc_self.weight, torch.Size([256, 256])
…
