…
Training time without block to device /epoch 0.9177441596984863
Training time without total dataloading part /epoch 0.8716163635253906
load block tensor time/epoch 0.03326106071472168
block to device time/epoch 0.3466765880584717
input features size transfer per epoch 5.364418029785156e-07
blocks size to device per epoch 4.76837158203125e-07
 Run 0| Epoch 0 |
Number of nodes for computation during this epoch:  23560
Number of first layer input nodes during this epoch:  8878
Number of first layer output nodes during this epoch:  7401
GraphSAGE(
  (layers): ModuleList(
    (0): SAGEConv(
      (fc_self): Linear(in_features=1433, out_features=512, bias=False)
      (fc_neigh): Linear(in_features=1433, out_features=512, bias=False)
    )
    (1): SAGEConv(
      (fc_self): Linear(in_features=512, out_features=512, bias=False)
      (fc_neigh): Linear(in_features=512, out_features=512, bias=False)
    )
    (2): SAGEConv(
      (fc_self): Linear(in_features=512, out_features=512, bias=False)
      (fc_neigh): Linear(in_features=512, out_features=512, bias=False)
    )
    (3): SAGEConv(
      (fc_self): Linear(in_features=512, out_features=512, bias=False)
      (fc_neigh): Linear(in_features=512, out_features=512, bias=False)
    )
    (4): SAGEConv(
      (fc_self): Linear(in_features=512, out_features=7, bias=False)
      (fc_neigh): Linear(in_features=512, out_features=7, bias=False)
    )
  )
  (dropout): Dropout(p=0.5, inplace=False)
)
total model parameters size  3047424
trainable parameters
layers.0.fc_self.weight, torch.Size([512, 1433])
layers.0.fc_neigh.weight, torch.Size([512, 1433])
layers.1.fc_self.weight, torch.Size([512, 512])
layers.1.fc_neigh.weight, torch.Size([512, 512])
layers.2.fc_self.weight, torch.Size([512, 512])
…
