…
Training time without block to device /epoch 1.5968635082244873
Training time without total dataloading part /epoch 1.3975882530212402
load block tensor time/epoch 0.12425565719604492
block to device time/epoch 0.37045836448669434
input features size transfer per epoch 3.7550926208496094e-06
blocks size to device per epoch 3.337860107421875e-06
 Run 0| Epoch 0 |
Number of nodes for computation during this epoch:  88636
Number of first layer input nodes during this epoch:  44067
Number of first layer output nodes during this epoch:  27784
GraphSAGE(
  (layers): ModuleList(
    (0): SAGEConv(
      (fc_self): Linear(in_features=1433, out_features=512, bias=False)
      (fc_neigh): Linear(in_features=1433, out_features=512, bias=False)
    )
    (1): SAGEConv(
      (fc_self): Linear(in_features=512, out_features=512, bias=False)
      (fc_neigh): Linear(in_features=512, out_features=512, bias=False)
    )
    (2): SAGEConv(
      (fc_self): Linear(in_features=512, out_features=512, bias=False)
      (fc_neigh): Linear(in_features=512, out_features=512, bias=False)
    )
    (3): SAGEConv(
      (fc_self): Linear(in_features=512, out_features=512, bias=False)
      (fc_neigh): Linear(in_features=512, out_features=512, bias=False)
    )
    (4): SAGEConv(
      (fc_self): Linear(in_features=512, out_features=7, bias=False)
      (fc_neigh): Linear(in_features=512, out_features=7, bias=False)
    )
  )
  (dropout): Dropout(p=0.5, inplace=False)
)
total model parameters size  3047424
trainable parameters
layers.0.fc_self.weight, torch.Size([512, 1433])
layers.0.fc_neigh.weight, torch.Size([512, 1433])
layers.1.fc_self.weight, torch.Size([512, 512])
layers.1.fc_neigh.weight, torch.Size([512, 512])
layers.2.fc_self.weight, torch.Size([512, 512])
…
