…
Training time without block to device /epoch 1.6726534366607666
Training time without total dataloading part /epoch 1.4095122814178467
load block tensor time/epoch 0.17701315879821777
block to device time/epoch 0.36963582038879395
input features size transfer per epoch 3.7550926208496094e-06
blocks size to device per epoch 3.337860107421875e-06
 Run 0| Epoch 0 |
Number of nodes for computation during this epoch:  89144
Number of first layer input nodes during this epoch:  44048
Number of first layer output nodes during this epoch:  28077
GraphSAGE(
  (layers): ModuleList(
    (0): SAGEConv(
      (fc_self): Linear(in_features=1433, out_features=256, bias=False)
      (fc_neigh): Linear(in_features=1433, out_features=256, bias=False)
    )
    (1): SAGEConv(
      (fc_self): Linear(in_features=256, out_features=256, bias=False)
      (fc_neigh): Linear(in_features=256, out_features=256, bias=False)
    )
    (2): SAGEConv(
      (fc_self): Linear(in_features=256, out_features=256, bias=False)
      (fc_neigh): Linear(in_features=256, out_features=256, bias=False)
    )
    (3): SAGEConv(
      (fc_self): Linear(in_features=256, out_features=256, bias=False)
      (fc_neigh): Linear(in_features=256, out_features=256, bias=False)
    )
    (4): SAGEConv(
      (fc_self): Linear(in_features=256, out_features=7, bias=False)
      (fc_neigh): Linear(in_features=256, out_features=7, bias=False)
    )
  )
  (dropout): Dropout(p=0.5, inplace=False)
)
total model parameters size  1130496
trainable parameters
layers.0.fc_self.weight, torch.Size([256, 1433])
layers.0.fc_neigh.weight, torch.Size([256, 1433])
layers.1.fc_self.weight, torch.Size([256, 256])
layers.1.fc_neigh.weight, torch.Size([256, 256])
layers.2.fc_self.weight, torch.Size([256, 256])
…
