…
Training time without block to device /epoch 39.87863802909851
Training time without total dataloading part /epoch 17.06908941268921
load block tensor time/epoch 22.3259539604187
block to device time/epoch 26.454068183898926
input features size transfer per epoch 6.705522537231445e-06
blocks size to device per epoch 5.9604644775390625e-06
 Run 0| Epoch 0 |
Number of nodes for computation during this epoch:  275500262
Number of first layer input nodes during this epoch:  106123435
Number of first layer output nodes during this epoch:  94370197
GraphSAGE(
  (layers): ModuleList(
    (0): SAGEConv(
      (fc_self): Linear(in_features=100, out_features=256, bias=False)
      (fc_neigh): Linear(in_features=100, out_features=256, bias=False)
    )
    (1): SAGEConv(
      (fc_self): Linear(in_features=256, out_features=256, bias=False)
      (fc_neigh): Linear(in_features=256, out_features=256, bias=False)
    )
    (2): SAGEConv(
      (fc_self): Linear(in_features=256, out_features=256, bias=False)
      (fc_neigh): Linear(in_features=256, out_features=256, bias=False)
    )
    (3): SAGEConv(
      (fc_self): Linear(in_features=256, out_features=256, bias=False)
      (fc_neigh): Linear(in_features=256, out_features=256, bias=False)
    )
    (4): SAGEConv(
      (fc_self): Linear(in_features=256, out_features=47, bias=False)
      (fc_neigh): Linear(in_features=256, out_features=47, bias=False)
    )
  )
  (dropout): Dropout(p=0.5, inplace=False)
)
total model parameters size  468480
trainable parameters
layers.0.fc_self.weight, torch.Size([256, 100])
layers.0.fc_neigh.weight, torch.Size([256, 100])
layers.1.fc_self.weight, torch.Size([256, 256])
layers.1.fc_neigh.weight, torch.Size([256, 256])
layers.2.fc_self.weight, torch.Size([256, 256])
layers.2.fc_neigh.weight, torch.Size([256, 256])
…
