…
Training time without block to device /epoch 1.0765838623046875
Training time without total dataloading part /epoch 0.9758994579315186
load block tensor time/epoch 0.07104635238647461
block to device time/epoch 0.3605339527130127
input features size transfer per epoch 1.0728836059570312e-06
blocks size to device per epoch 9.5367431640625e-07
 Run 0| Epoch 0 |
Number of nodes for computation during this epoch:  159921
Number of first layer input nodes during this epoch:  89897
Number of first layer output nodes during this epoch:  53289
GraphSAGE(
  (layers): ModuleList(
    (0): SAGEConv(
      (fc_self): Linear(in_features=500, out_features=512, bias=False)
      (fc_neigh): Linear(in_features=500, out_features=512, bias=False)
    )
    (1): SAGEConv(
      (fc_self): Linear(in_features=512, out_features=512, bias=False)
      (fc_neigh): Linear(in_features=512, out_features=512, bias=False)
    )
    (2): SAGEConv(
      (fc_self): Linear(in_features=512, out_features=512, bias=False)
      (fc_neigh): Linear(in_features=512, out_features=512, bias=False)
    )
    (3): SAGEConv(
      (fc_self): Linear(in_features=512, out_features=512, bias=False)
      (fc_neigh): Linear(in_features=512, out_features=512, bias=False)
    )
    (4): SAGEConv(
      (fc_self): Linear(in_features=512, out_features=3, bias=False)
      (fc_neigh): Linear(in_features=512, out_features=3, bias=False)
    )
  )
  (dropout): Dropout(p=0.5, inplace=False)
)
total model parameters size  2087936
trainable parameters
layers.0.fc_self.weight, torch.Size([512, 500])
layers.0.fc_neigh.weight, torch.Size([512, 500])
layers.1.fc_self.weight, torch.Size([512, 512])
layers.1.fc_neigh.weight, torch.Size([512, 512])
layers.2.fc_self.weight, torch.Size([512, 512])
layers.2.fc_neigh.weight, torch.Size([512, 512])
…
