…
Training time without block to device /epoch 0.9293050765991211
Training time without total dataloading part /epoch 0.8742353916168213
load block tensor time/epoch 0.0406646728515625
block to device time/epoch 0.3506660461425781
input features size transfer per epoch 5.364418029785156e-07
blocks size to device per epoch 4.76837158203125e-07
 Run 0| Epoch 0 |
Number of nodes for computation during this epoch:  107875
Number of first layer input nodes during this epoch:  55483
Number of first layer output nodes during this epoch:  37602
GraphSAGE(
  (layers): ModuleList(
    (0): SAGEConv(
      (fc_self): Linear(in_features=500, out_features=256, bias=False)
      (fc_neigh): Linear(in_features=500, out_features=256, bias=False)
    )
    (1): SAGEConv(
      (fc_self): Linear(in_features=256, out_features=256, bias=False)
      (fc_neigh): Linear(in_features=256, out_features=256, bias=False)
    )
    (2): SAGEConv(
      (fc_self): Linear(in_features=256, out_features=256, bias=False)
      (fc_neigh): Linear(in_features=256, out_features=256, bias=False)
    )
    (3): SAGEConv(
      (fc_self): Linear(in_features=256, out_features=256, bias=False)
      (fc_neigh): Linear(in_features=256, out_features=256, bias=False)
    )
    (4): SAGEConv(
      (fc_self): Linear(in_features=256, out_features=3, bias=False)
      (fc_neigh): Linear(in_features=256, out_features=3, bias=False)
    )
  )
  (dropout): Dropout(p=0.5, inplace=False)
)
total model parameters size  650752
trainable parameters
layers.0.fc_self.weight, torch.Size([256, 500])
layers.0.fc_neigh.weight, torch.Size([256, 500])
layers.1.fc_self.weight, torch.Size([256, 256])
layers.1.fc_neigh.weight, torch.Size([256, 256])
layers.2.fc_self.weight, torch.Size([256, 256])
layers.2.fc_neigh.weight, torch.Size([256, 256])
…
