…
Training time without block to device /epoch 80.18308568000793
Training time without total dataloading part /epoch 34.48905062675476
load block tensor time/epoch 45.023364305496216
block to device time/epoch 56.28957796096802
input features size transfer per epoch 1.475214958190918e-05
blocks size to device per epoch 1.3113021850585938e-05
 Run 0| Epoch 0 |
Number of nodes for computation during this epoch:  616360943
Number of first layer input nodes during this epoch:  229769425
Number of first layer output nodes during this epoch:  200304105
GraphSAGE(
  (layers): ModuleList(
    (0): SAGEConv(
      (fc_self): Linear(in_features=100, out_features=256, bias=False)
      (fc_neigh): Linear(in_features=100, out_features=256, bias=False)
    )
    (1): SAGEConv(
      (fc_self): Linear(in_features=256, out_features=256, bias=False)
      (fc_neigh): Linear(in_features=256, out_features=256, bias=False)
    )
    (2): SAGEConv(
      (fc_self): Linear(in_features=256, out_features=256, bias=False)
      (fc_neigh): Linear(in_features=256, out_features=256, bias=False)
    )
    (3): SAGEConv(
      (fc_self): Linear(in_features=256, out_features=256, bias=False)
      (fc_neigh): Linear(in_features=256, out_features=256, bias=False)
    )
    (4): SAGEConv(
      (fc_self): Linear(in_features=256, out_features=256, bias=False)
      (fc_neigh): Linear(in_features=256, out_features=256, bias=False)
    )
    (5): SAGEConv(
      (fc_self): Linear(in_features=256, out_features=47, bias=False)
      (fc_neigh): Linear(in_features=256, out_features=47, bias=False)
    )
  )
  (dropout): Dropout(p=0.5, inplace=False)
)
total model parameters size  599552
trainable parameters
layers.0.fc_self.weight, torch.Size([256, 100])
layers.0.fc_neigh.weight, torch.Size([256, 100])
layers.1.fc_self.weight, torch.Size([256, 256])
layers.1.fc_neigh.weight, torch.Size([256, 256])
layers.2.fc_self.weight, torch.Size([256, 256])
layers.2.fc_neigh.weight, torch.Size([256, 256])
…
